…
---------------------------------------------------------------------------------------
16.8 M    Trainable params
27.0 M    Non-trainable params
43.8 M    Total params
175.219   Total estimated model params size (MB)
397       Modules in train mode
0         Modules in eval mode
0         Total Flops
Processed burn_sham_with_velocity: 57298 train, 0 val, 0 test
num_workers: 0
batch size: None
trainable params: 461,824 || all params: 27,476,888 || trainable%: 1.6808
StateTransitionPerturbationModel(
  (loss_fn): SamplesLoss()
  (gene_decoder): LatentToGeneDecoder(
    (decoder): Sequential(
      (0): Linear(in_features=2000, out_features=1024, bias=True)
      (1): LayerNorm((1024,), eps=1e-05, elementwise_affine=True)
      (2): GELU(approximate='none')
      (3): Dropout(p=0.1, inplace=False)
      (4): Linear(in_features=1024, out_features=1024, bias=True)
      (5): LayerNorm((1024,), eps=1e-05, elementwise_affine=True)
      (6): GELU(approximate='none')
      (7): Dropout(p=0.1, inplace=False)
      (8): Linear(in_features=1024, out_features=512, bias=True)
      (9): LayerNorm((512,), eps=1e-05, elementwise_affine=True)
      (10): GELU(approximate='none')
      (11): Dropout(p=0.1, inplace=False)
      (12): Linear(in_features=512, out_features=18975, bias=True)
      (13): ReLU()
    )
  )
  (pert_encoder): Sequential(
    (0): Linear(in_features=2, out_features=328, bias=True)
    (1): GELU(approximate='none')
    (2): Dropout(p=0.1, inplace=False)
    (3): Linear(in_features=328, out_features=328, bias=True)
    (4): GELU(approximate='none')
    (5): Dropout(p=0.1, inplace=False)
    (6): Linear(in_features=328, out_features=328, bias=True)
    (7): GELU(approximate='none')
    (8): Dropout(p=0.1, inplace=False)
    (9): Linear(in_features=328, out_features=328, bias=True)
  )
  (basal_encoder): Linear(in_features=2000, out_features=328, bias=True)
  (transformer_backbone): PeftModelForFeatureExtraction(
    (base_model): LoraModel(
      (model): GPT2BidirectionalModel(
        (wte): Embedding(50257, 328)
        (wpe): Embedding(512, 328)
        (drop): Dropout(p=0.0, inplace=False)
        (h): ModuleList(
          (0-7): 8 x GPT2Block(
            (ln_1): LayerNorm((328,), eps=1e-05, elementwise_affine=True)
            (attn): GPT2Attention(
              (c_attn): lora.Linear(
                (base_layer): Conv1D(nf=984, nx=328)
                (lora_dropout): ModuleDict(
                  (default): Identity()
                )
                (lora_A): ModuleDict(
                  (default): Linear(in_features=328, out_features=16, bias=False)
                )
                (lora_B): ModuleDict(
                  (default): Linear(in_features=16, out_features=984, bias=False)
                )
                (lora_embedding_A): ParameterDict()
                (lora_embedding_B): ParameterDict()
                (lora_magnitude_vector): ModuleDict()
              )
              (c_proj): lora.Linear(
                (base_layer): Conv1D(nf=328, nx=328)
                (lora_dropout): ModuleDict(
                  (default): Identity()
                )
                (lora_A): ModuleDict(
                  (default): Linear(in_features=328, out_features=16, bias=False)
                )
                (lora_B): ModuleDict(
                  (default): Linear(in_features=16, out_features=328, bias=False)
                )
                (lora_embedding_A): ParameterDict()
                (lora_embedding_B): ParameterDict()
                (lora_magnitude_vector): ModuleDict()
              )
              (attn_dropout): Dropout(p=0.0, inplace=False)
              (resid_dropout): Dropout(p=0.0, inplace=False)
            )
            (ln_2): LayerNorm((328,), eps=1e-05, elementwise_affine=True)
            (mlp): GPT2MLP(
              (c_fc): Conv1D(nf=1312, nx=328)
              (c_proj): lora.Linear(
                (base_layer): Conv1D(nf=328, nx=1312)
                (lora_dropout): ModuleDict(
                  (default): Identity()
                )
                (lora_A): ModuleDict(
                  (default): Linear(in_features=1312, out_features=16, bias=False)
                )
                (lora_B): ModuleDict(
                  (default): Linear(in_features=16, out_features=328, bias=False)
                )
                (lora_embedding_A): ParameterDict()
                (lora_embedding_B): ParameterDict()
                (lora_magnitude_vector): ModuleDict()
              )
              (act): NewGELUActivation()
              (dropout): Dropout(p=0.0, inplace=False)
            )
          )
        )
        (ln_f): LayerNorm((328,), eps=1e-05, elementwise_affine=True)
      )
    )
  )
  (project_out): Sequential(
    (0): Linear(in_features=328, out_features=328, bias=True)
    (1): GELU(approximate='none')
    (2): Dropout(p=0.1, inplace=False)
    (3): Linear(in_features=328, out_features=328, bias=True)
    (4): GELU(approximate='none')
    (5): Dropout(p=0.1, inplace=False)
    (6): Linear(in_features=328, out_features=328, bias=True)
    (7): GELU(approximate='none')
    (8): Dropout(p=0.1, inplace=False)
    (9): Linear(in_features=328, out_features=2000, bias=True)
  )
  (final_down_then_up): Sequential(
    (0): Linear(in_features=2000, out_features=250, bias=True)
    (1): GELU(approximate='none')
    (2): Linear(in_features=250, out_features=2000, bias=True)
  )
  (velocity_loss_fn): VelocityAlignmentLoss()
)
Model created. Estimated params size: 0.16 GB
Warning: Failed to initialize wandb logger: Error uploading run: returned error 404: {"data":{"upsertBucket":null},"errors":[{"message":"entity your_entity_name not found during upsertBucket","path":["upsertBucket"]}]}
Continuing without wandb logging.
Bu
…
